…
2024-07-23 14:37:14 INFO     dataset: toys
2024-07-23 14:37:14 INFO     user number: 19412
2024-07-23 14:37:14 INFO     item number: 11925
2024-07-23 14:37:14 INFO     average seq length: 8.6337
2024-07-23 14:37:14 INFO     density: 0.0007 sparsity: 0.9993
2024-07-23 14:37:14 INFO     data after augmentation:
2024-07-23 14:37:14 INFO     train samples: 109361	eval samples: 19412	test samples: 19412
2024-07-23 14:37:14 INFO     [1] Model Architecture ------------------------
2024-07-23 14:37:14 INFO     total parameters: 1035520
2024-07-23 14:37:14 INFO     IOCRec(
  (cross_entropy): CrossEntropyLoss()
  (item_embedding): Embedding(11927, 64, padding_idx=0)
  (position_embedding): Embedding(50, 64)
  (input_layer_norm): LayerNorm((64,), eps=1e-12, elementwise_affine=True)
  (input_dropout): Dropout(p=0.5, inplace=False)
  (local_encoder): Transformer(
    (encoder_layers): ModuleList(
      (0-2): 3 x EncoderLayer(
        (attn_layer_norm): LayerNorm((64,), eps=1e-12, elementwise_affine=True)
        (pff_layer_norm): LayerNorm((64,), eps=1e-12, elementwise_affine=True)
        (self_attention): MultiHeadAttentionLayer(
          (fc_q): Linear(in_features=64, out_features=64, bias=True)
          (fc_k): Linear(in_features=64, out_features=64, bias=True)
          (fc_v): Linear(in_features=64, out_features=64, bias=True)
          (attn_dropout): Dropout(p=0.5, inplace=False)
          (fc_o): Linear(in_features=64, out_features=64, bias=True)
        )
        (pff): PointWiseFeedForwardLayer(
          (fc1): Linear(in_features=64, out_features=512, bias=True)
          (fc2): Linear(in_features=512, out_features=64, bias=True)
        )
        (hidden_dropout): Dropout(p=0.5, inplace=False)
        (pff_out_drop): Dropout(p=0.5, inplace=False)
      )
    )
  )
  (global_seq_encoder): GlobalSeqEncoder(
    (dropout): Dropout(p=0.5, inplace=False)
    (K_linear): Linear(in_features=64, out_features=64, bias=True)
    (V_linear): Linear(in_features=64, out_features=64, bias=True)
  )
  (disentangle_encoder): DisentangleEncoder(
    (pos_fai): Embedding(50, 64)
    (W): Linear(in_features=64, out_features=64, bias=True)
    (layer_norm_1): LayerNorm((64,), eps=1e-05, elementwise_affine=True)
    (layer_norm_2): LayerNorm((64,), eps=1e-05, elementwise_affine=True)
    (layer_norm_3): LayerNorm((64,), eps=1e-05, elementwise_affine=True)
    (layer_norm_4): LayerNorm((64,), eps=1e-05, elementwise_affine=True)
    (layer_norm_5): LayerNorm((64,), eps=1e-05, elementwise_affine=True)
  )
  (nce_loss): InfoNCELoss(
    (criterion): CrossEntropyLoss()
  )
)
2024-07-23 14:37:14 INFO     Start training...
2024-07-23 14:37:48 INFO     ----------------------------------------------------Epoch 1----------------------------------------------------
2024-07-23 14:37:48 INFO      Training Time :[33.7 s]	Training Loss = 11.3731
2024-07-23 14:37:49 INFO     Evaluation Time:[1.0 s]	  Eval Loss   = 9.3819
…
