…
2023-07-07 15:03:19 INFO     dataset: toys
2023-07-07 15:03:19 INFO     user number: 19412
2023-07-07 15:03:19 INFO     item number: 11925
2023-07-07 15:03:19 INFO     average seq length: 8.6337
2023-07-07 15:03:19 INFO     density: 0.0007 sparsity: 0.9993
2023-07-07 15:03:19 INFO     data after augmentation:
2023-07-07 15:03:19 INFO     train samples: 109361	eval samples: 19412	test samples: 19412
2023-07-07 15:03:19 INFO     [1] Model Architecture ------------------------
2023-07-07 15:03:19 INFO     total parameters: 886912
2023-07-07 15:03:19 INFO     IOCRec(
  (cross_entropy): CrossEntropyLoss()
  (item_embedding): Embedding(11927, 64, padding_idx=0)
  (position_embedding): Embedding(50, 64)
  (input_layer_norm): LayerNorm((64,), eps=1e-12, elementwise_affine=True)
  (input_dropout): Dropout(p=0.5, inplace=False)
  (local_encoder): Transformer(
    (encoder_layers): ModuleList(
      (0): EncoderLayer(
        (attn_layer_norm): LayerNorm((64,), eps=1e-12, elementwise_affine=True)
        (pff_layer_norm): LayerNorm((64,), eps=1e-12, elementwise_affine=True)
        (self_attention): MultiHeadAttentionLayer(
          (fc_q): Linear(in_features=64, out_features=64, bias=True)
          (fc_k): Linear(in_features=64, out_features=64, bias=True)
          (fc_v): Linear(in_features=64, out_features=64, bias=True)
          (attn_dropout): Dropout(p=0.5, inplace=False)
          (fc_o): Linear(in_features=64, out_features=64, bias=True)
        )
        (pff): PointWiseFeedForwardLayer(
          (fc1): Linear(in_features=64, out_features=128, bias=True)
          (fc2): Linear(in_features=128, out_features=64, bias=True)
        )
        (hidden_dropout): Dropout(p=0.5, inplace=False)
        (pff_out_drop): Dropout(p=0.5, inplace=False)
      )
      (1): EncoderLayer(
        (attn_layer_norm): LayerNorm((64,), eps=1e-12, elementwise_affine=True)
        (pff_layer_norm): LayerNorm((64,), eps=1e-12, elementwise_affine=True)
        (self_attention): MultiHeadAttentionLayer(
          (fc_q): Linear(in_features=64, out_features=64, bias=True)
          (fc_k): Linear(in_features=64, out_features=64, bias=True)
          (fc_v): Linear(in_features=64, out_features=64, bias=True)
          (attn_dropout): Dropout(p=0.5, inplace=False)
          (fc_o): Linear(in_features=64, out_features=64, bias=True)
        )
        (pff): PointWiseFeedForwardLayer(
          (fc1): Linear(in_features=64, out_features=128, bias=True)
          (fc2): Linear(in_features=128, out_features=64, bias=True)
        )
        (hidden_dropout): Dropout(p=0.5, inplace=False)
        (pff_out_drop): Dropout(p=0.5, inplace=False)
      )
      (2): EncoderLayer(
        (attn_layer_norm): LayerNorm((64,), eps=1e-12, elementwise_affine=True)
        (pff_layer_norm): LayerNorm((64,), eps=1e-12, elementwise_affine=True)
        (self_attention): MultiHeadAttentionLayer(
          (fc_q): Linear(in_features=64, out_features=64, bias=True)
          (fc_k): Linear(in_features=64, out_features=64, bias=True)
          (fc_v): Linear(in_features=64, out_features=64, bias=True)
          (attn_dropout): Dropout(p=0.5, inplace=False)
          (fc_o): Linear(in_features=64, out_features=64, bias=True)
        )
        (pff): PointWiseFeedForwardLayer(
          (fc1): Linear(in_features=64, out_features=128, bias=True)
          (fc2): Linear(in_features=128, out_features=64, bias=True)
        )
        (hidden_dropout): Dropout(p=0.5, inplace=False)
        (pff_out_drop): Dropout(p=0.5, inplace=False)
      )
    )
  )
  (global_seq_encoder): GlobalSeqEncoder(
    (dropout): Dropout(p=0.5, inplace=False)
    (K_linear): Linear(in_features=64, out_features=64, bias=True)
    (V_linear): Linear(in_features=64, out_features=64, bias=True)
  )
  (disentangle_encoder): DisentangleEncoder(
    (pos_fai): Embedding(50, 64)
    (W): Linear(in_features=64, out_features=64, bias=True)
    (layer_norm_1): LayerNorm((64,), eps=1e-05, elementwise_affine=True)
    (layer_norm_2): LayerNorm((64,), eps=1e-05, elementwise_affine=True)
    (layer_norm_3): LayerNorm((64,), eps=1e-05, elementwise_affine=True)
    (layer_norm_4): LayerNorm((64,), eps=1e-05, elementwise_affine=True)
    (layer_norm_5): LayerNorm((64,), eps=1e-05, elementwise_affine=True)
  )
  (nce_loss): InfoNCELoss(
    (criterion): CrossEntropyLoss()
  )
)
2023-07-07 15:03:19 INFO     Start training...
2023-07-07 15:04:20 INFO     ----------------------------------------------------Epoch 1----------------------------------------------------
2023-07-07 15:04:20 INFO      Training Time :[61.2 s]	Training Loss = 11.4126
2023-07-07 15:04:22 INFO     Evaluation Time:[1.7 s]	  Eval Loss   = 9.392
…
